…
t_type":"stream","text":["  \u001b[33mWARNING \u001b[0m | \u001b[33mNone\u001b[0m\n","  \u001b[33mWARNING \u001b[0m | \u001b[33mNone\u001b[0m\n"],"name":"stderr"},{"output_type":"stream","text":["Model: \"inference\"\n","_________________________________________________________________\n","Layer (type)                 Output Shape              Param #   \n","=================================================================\n","inference_inputs (InputLayer [(None, 220, 300, 3)]     0         \n","_________________________________________________________________\n","flatten (Flatten)            (None, 198000)            0         \n","_________________________________________________________________\n","dense (Dense)                (None, 50)                9900050   \n","_________________________________________________________________\n","batch_normalization (BatchNo (None, 50)                200       \n","_________________________________________________________________\n","dropout (Dropout)            (None, 50)                0         \n","_________________________________________________________________\n","activity_regularization (Act (None, 50)                0         \n","_________________________________________________________________\n","inference_outputs (Activatio (None, 50)                0         \n","=================================================================\n","Total params: 9,900,250\n","Trainable params: 9,900,150\n","Non-trainable params: 100\n","_________________________________________________________________\n","\n"],"name":"stdout"},{"output_type":"stream","text":["  \u001b[33mWARNING \u001b[0m | \u001b[33mNone\u001b[0m\n","  \u001b[33mWARNING \u001b[0m | \u001b[33mNone\u001b[0m\n"],"name":"stderr"},{"output_type":"stream","text":["Model: \"generative\"\n","_________________________________________________________________\n","Layer (type)                 Output Shape              Param #   \n","=================================================================\n","generative_inputs (InputLaye [(None, 50)]              0         \n","_________________________________________________________________\n","dense_1 (Dense)              (None, 206250)            10518750  \n","_________________________________________________________________\n","reshape (Reshape)            (None, 55, 75, 50)        0         \n","_________________________________________________________________\n","conv2d (Conv2D)              (None, 28, 38, 50)        22550     \n","_________________________________________________________________\n","up_sampling2d (UpSampling2D) (None, 56, 76, 50)        0         \n","_________________________________________________________________\n","up_sampling2d_1 (UpSampling2 (None, 112, 152, 50)      0         \n","_________________________________________________________________\n","conv2d_1 (Conv2D)            (None, 56, 76, 50)        22550     \n","_________________________________________________________________\n","up_sampling2d_2 (UpSampling2 (None, 112, 152, 50)      0         \n","_________________________________________________________________\n","up_sampling2d_3 (UpSampling2 (None, 224, 304, 50)      0         \n","_________________________________________________________________\n","conv2d_2 (Conv2D)            (None, 112, 152, 50)      22550     \n","_________________________________________________________________\n","up_sampling2d_4 (UpSampling2 (None, 224, 304, 50)      0         \n","_________________________________________________________________\n","conv2d_transpose (Conv2DTran (None, 224, 304, 3)       1353      \n","_________________________________________________________________\n","batch_normalization_1 (Batch (None, 224, 304, 3)       12        \n","_________________________________________________________________\n","dropout_1 (Dropout)          (None, 224, 304, 3)       0         \n","_________________________________________________________________\n","activity_regularization_1 (A (None, 224, 304, 3)       0         \n","_________________________________________________________________\n","generative_outputs (Activati (None, 224, 304, 3)       0         \n","=================================================================\n","Total params: 10,587,765\n","Trainable params: 10,587,759\n","Non-trainable params: 6\n","_________________________________________________________________\n","\n"],"name":"stdout"}]},{"cell_type":"code","metadata":{"id":"qwGiFISzKEmK","executionInfo":{"status":"ok","timestamp":1605954667273,"user_tz":-60,"elapsed"
…
